models/checkpoint.pth (torch_old, 818250 bytes, 9 tensors)

weight_ih_l0 f4 [512, 4]
000000 56 50 7a 3d f9 51 d5 3c bd 99 e7 3c ce e8 67 be
       0.06111177 0.026040064 0.02827155 -0.22647402
000010 1e 40 12 bd 4e 47 08 be de 68 18 be 3e 7e 04 3e
       -0.03570568 -0.1330845 -0.14883754 0.12938783
000020 f3 49 a1 bc dd 43 48 3d ef 21 f3 3d 87 ea 0c bd
       -0.019688582 0.048892844 0.11871707 -0.03440335
000030 3b 4c 54 3d 2f 2c 7b 3e 73 aa e4 3d 2a 2e 1c c0
       0.05183051 0.24528573 0.11165323 -2.4403176
000040 53 d1 02 3c 0a fe 9a be 21 25 8a bd e3 1f b8 bf
       0.007984477 -0.3027194 -0.06745363 -1.4384731
000050 72 e6 0f 3b dc 34 41 3d 90 5c 02 bd a6 33 c9 be
       0.0021957424 0.04716955 -0.031826556 -0.39297217
000060 82 13 b8 bc 05 e1 33 3e f9 ef 9f bd 71 b7 93 be
       -0.02247024 0.17566307 -0.07809443 -0.28850892
000070 16 ec 8f bc 4f 58 87 be 78 e4 d2 bd a9 0a 04 bf
       -0.01756863 -0.26434562 -0.10297483 -0.51578766
000080 7b 62 82 3e f4 ae 97 3e c9 b9 60 bb e2 64 18 3f
       0.2546576 0.29625666 -0.0034290424 0.59528935
000090 8a eb 55 bd 39 1b 49 be e5 fe 18 be 21 2e e8 be
       -0.05222658 -0.19639291 -0.14940985 -0.45347694
0000a0 34 47 bd bd d7 55 51 bd 9a 3d 40 3d 7a 79 ab 3e
       -0.092420965 -0.051107254 0.046933748 0.33491117
0000b0 40 27 a9 bc 19 9c 4c be d3 f2 14 be b1 a4 ce be
       -0.020648599 -0.19981422 -0.14545755 -0.40360025
0000c0 1d 96 33 3c 1f c9 6e be 60 98 51 be 93 0e a3 be
       0.010961083 -0.23318909 -0.20468283 -0.31847057
0000d0 19 92 5c bd b6 72 fc bd af a4 4d 3c c5 d9 b8 bf
       -0.053850267 -0.12326567 0.012551471 -1.4441458
0000e0 1e 55 01 be 2a 2b 67 be b1 e1 14 bd 2e ba 7c be
       -0.12630126 -0.2257506 -0.03634805 -0.24680397
0000f0 ae 0d af bd a0 59 3a 3e 0c 54 36 bb 13 bc b5 3e
       -0.08547531 0.18198252 -0.0027821092 0.35495052
000100 34 51 7d bb 0f c1 54 3d ed a8 29 3d d8 fe 36 3f
       -0.0038653137 0.051941928 0.041420866 0.7148261
000110 c8 68 15 bd 70 f7 a6 bc 90 e2 d4 3c 91 28 39 3f
       -0.03647688 -0.02038166 0.02598694 0.72327524
000120 db 05 db bc fa 1f e0 3d db fc 8b 3e e1 5f 81 3f
       -0.02673619 0.10943599 0.2734135 1.0107385
000130 b0 80 fd 3d 38 68 43 bc 78 df cc 3c 49 c4 5c bd
       0.12378061 -0.011926703 0.025008902 -0.05389813
000140 53 90 00 be 60 b5 47 3e 5d 26 67 bd 51 32 3c be
       -0.12555055 0.19502783 -0.05643307 -0.18378569
000150 44 86 26 bc 19 38 d0 be 27 b6 8e be 13 78 bd 3b
       -0.010163847 -0.406678 -0.27873346 0.005782136
000160 a6 af e1 bc 05 06 2a be a5 9d 81 bd 07 4b 37 be
       -0.027549576 -0.16603859 -0.063288964 -0.17899714
000170 e4 4e af bc 8a 5a 3f bd de 96 cc 3d 88 10 dd be
       -0.021399923 -0.046717204 0.09989713 -0.43176675
000180 a5 c9 42 3e 5e 82 30 3d 90 f2 8c 3d 92 62 92 3f
       0.19022234 0.043093078 0.068822026 1.1436331
000190 65 d1 d4 3b 24 40 bf 3d f3 2f 46 bd 0f 30 f5 be
       0.0064946883 0.09338406 -0.04838557 -0.47888228
0001a0 f5 a4 56 3b 2d bb 10 be df 5b ad bd a2 26 4d bf
       0.003275213 -0.14133902 -0.08464789 -0.80137074
0001b0 0f f0 a5 3c 54 92 5a 3e 64 17 51 be 7f cc e4 be
       0.02025607 0.21344882 -0.20419079 -0.44687268
0001c0 25 ae 81 be 4c 1c a3 3d f8 a6 0e be 4a ca c6 3c
       -0.25328174 0.079643816 -0.13930881 0.02426638
0001d0 85 63 03 bd cd b3 9e bd 03 f3 10 be db 08 4e 3f
       -0.03207733 -0.07749138 -0.14155202 0.8048226
0001e0 f0 a7 90 3e 1b c2 1c 3e b5 33 e6 3d 6c 8d ce 3e
       0.28253126 0.1530842 0.11240331 0.4034227
0001f0 5f 1e d2 3c 1e e4 0c 3c cc f8 99 be 01 5c b1 be
       0.025649248 0.008599309 -0.3007263 -0.34640506
000200 80 24 a8 bd d2 cf 5d be 0d 3a 72 bd d0 1f a4 3e
       -0.08210087 -0.21661308 -0.059137393 0.3205552
000210 ac b4 55 3c d5 92 7e bd 15 e1 17 bd 74 72 74 bf
       0.013043564 -0.06215175 -0.03707989 -0.9548714
000220 eb f6 01 3e 9c fa 00 3e bd a8 9d 3d 36 44 bb be
       0.12691848 0.125956 0.076982 -0.36575478
000230 07 f4 af 3d ac 94 99 bd d7 cc b0 bd 07 72 18 bf
       0.085914664 -0.0749906 -0.0863282 -0.5954899
000240 d9 23 d5 3e 06 a6 76 3e f8 ec 8d 3d f0 fb 69 bd
       0.41628912 0.2408677 0.06929964 -0.057125032
000250 c4 c8 6a 3c 3b 8d f6 bc d4 e4 80 3c ac 7c 31 be
       0.014330093 -0.03009664 0.015734114 -0.17332715
000260 13 b7 8a bd 2e 14 81 3e ff b6 28 be a4 5c 2d 3f
       -0.067732 0.25210708 -0.16476057 0.67719483
000270 db 4f 24 bd e6 dd 43 be 72 06 07 3e b1 d7 ed bd
       -0.04011522 -0.19127616 0.13186052 -0.116134055
000280 19 a2 09 3b 84 24 99 bd 35 1a da bd 38 e2 1f bf
       0.0021001159 -0.07477668 -0.1064953 -0.6245456
000290 b9 82 41 3d f9 7c b6 bd 9b 82 7e bd 21 e6 2e bf
       0.047243807 -0.089105554 -0.062136274 -0.683199
0002a0 b4 9b 00 bc 36 25 c1 bd 96 88 46 3e 98 de 28 be
       -0.0078496225 -0.094309255 0.19388041 -0.16491163
0002b0 6f e6 5c bc 93 73 b0 3c 5a 17 2e bd 3e 9b bc 3e
       -0.013482674 0.021539485 -0.04250274 0.3683719
0002c0 27 51 5d 3c 01 31 21 3c 44 37 ba bd d9 7f 1f bf
       0.013508118 0.009838344 -0.09092572 -0.62304455
0002d0 37 7c 80 3d 81 74 ec be 54 4d c3 bc 61 c2 06 bf
       0.06273692 -0.46182635 -0.023840584 -0.5264035
0002e0 0b ab 36 3c db 2b cb bd 8f b9 48 be 73 e0 8a 3f
       0.011149178 -0.09920474 -0.19602035 1.0849746
0002f0 90 9d 54 3d e6 cd d1 3e e3 98 8f 3e b4 30 29 bf
       0.051908076 0.409774 0.2804633 -0.6608994
000300 5b ff 04 3e cb bd e5 bd d5 0c b1 3d 5f cd 00 3e
       0.12988035 -0.11217841 0.08645026 0.12578343
000310 1a 99 db bd 20 90 38 bc 1e 46 a4 be 3a 67 97 3e
       -0.10722561 -0.011264831 -0.32084745 0.29570943
000320 24 d1 ae bd df 06 0c 3e 4c f6 bb ba a1 ab d3 3d
       -0.08535984 0.13674496 -0.001434037 0.1033547
000330 da 47 9c 3c c7 16 75 3d b1 bf be 3c 6c bd 43 bf
       0.01907723 0.059836175 0.023284765 -0.7646091
000340 2c 26 4b 3d 7a 59 73 3e 08 af 0a 3f a2 a7 5c bf
       0.04959695 0.23764601 0.54173326 -0.8619329
000350 ac 68 89 3b 94 98 7c 3e 3d 78 32 bc ca 05 4a bf
       0.004193386 0.24667579 -0.010892925 -0.78915083
000360 d1 79 a3 bd 3d 1e 16 be ee 9d c7 bc 4f bd 95 3e
       -0.07982219 -0.14659972 -0.024367299 0.29245993
000370 79 59 44 3d bf 5b 69 3d 7c df fe bd f3 90 a0 be
       0.04793689 0.05697226 -0.1244497 -0.31360587
000380 ba d6 d4 3c 33 86 96 be fb 48 51 be 5c 2d 0c bf
       0.025981296 -0.2939926 -0.20437996 -0.5475671
000390 80 b2 98 bd bd fb 5e 3d 6e 86 f9 bd 41 e7 87 3e
       -0.07455921 0.054439295 -0.121838436 0.2654362
0003a0 35 46 a8 bc d8 4a dd 3b fe 37 4c be aa 17 c6 be
       -0.02054129 0.006753307 -0.19943234 -0.3868993
0003b0 3d 62 ec bc 87 e4 10 bd ff 5d 23 bd bc 3a b4 3a
       -0.028855437 -0.03537419 -0.039884564 0.0013750414
0003c0 e1 4c 99 bd fd 4b e6 3d c9 96 a1 3c dc cd 9c bf
       -0.074853666 0.11244962 0.01972522 -1.2250323
0003d0 62 12 24 3d 96 3d 33 be 96 05 29 3e d4 95 22 3f
       0.040056594 -0.17503962 0.16506037 0.6350987
0003e0 b2 c7 d4 3e 99 f9 ee 3c a0 59 8f 3d bc 7e a6 be
       0.41558605 0.029171752 0.069995165 -0.32518566
0003f0 4a 2c 69 3e 91 ca 56 3d 68 53 0a 3e fa 83 c5 3e
       0.22770801 0.052439276 0.1350838 0.38577253

weight_hh_l0 f4 [512, 128]
000000 9d 35 6d be 2f a9 74 be 4b cd 6a be 8a 09 41 3e
       -0.23164983 -0.23892663 -0.22929876 0.18851295
000010 69 43 44 be 97 c2 0c bd cc c2 2a be 82 66 f0 3d
       -0.1916634 -0.034365263 -0.16675872 0.11738302
000020 3f d3 1c be 1c ad 06 3d 8f bf 9f bd 27 75 e5 3e
       -0.15314959 0.032879934 -0.07800209 0.44815943
000030 93 3c d2 bd 73 38 5a be 45 f2 6a 3e cf 0f 4f 3e
       -0.1026546 -0.21310596 0.22943981 0.20220874
000040 99 09 76 3d f0 8e 29 be 6e ef 87 bd 64 c9 b5 3e
       0.060067747 -0.16558433 -0.066374645 0.3550521
000050 2a 15 9d 3e e4 2d 1b 3d 14 27 25 be d6 9a 8b 3d
       0.3068021 0.03788556 -0.16128188 0.06816642
000060 f7 cd 70 bd 37 e1 77 3d 85 6e bd 3c d4 41 01 3e
       -0.058790173 0.060517516 0.023123989 0.12622768
000070 45 c9 83 3e 23 1d e8 bd 21 b1 04 3c c9 40 4b 3e
       0.25739494 -0.113336824 0.008098871 0.19848932
000080 11 7b 83 3d 1a d5 3b bd 88 39 fc 3d 73 92 25 3e
       0.064199574 -0.045857526 0.12315661 0.16169147
000090 7b fb 4d be 0e 37 b0 3e 8b ed 26 3e 45 bd 51 3c
       -0.20115463 0.34417003 0.16301553 0.012801473
0000a0 aa f0 ee bd 6f 43 ae bd 5e 9d e1 3e a1 ca 9a 3d
       -0.11666997 -0.08508956 0.44065374 0.0755818
0000b0 54 e3 22 bd ff 5b c9 3e 01 e9 c0 3e d4 a7 32 3e
       -0.03976758 0.39328 0.37677768 0.17446834
0000c0 5a 13 49 be 68 e9 79 be fe 97 fe 3d 0b 0b a9 3b
       -0.19636288 -0.24405444 0.12431334 0.005158787
0000d0 ee 66 2f 3d de b9 31 3e 11 c9 02 be 82 0a d8 bd
       0.04282277 0.17356059 -0.12772013 -0.10548879
0000e0 7c f4 f1 bd 95 a1 4d 3e 20 e4 53 3d 9a bf f0 3c
       -0.1181421 0.2008117 0.05173123 0.029388238
0000f0 7e 16 a3 3e 14 4d 32 bd 2a 7f 0d 3e e2 ea 5c be
       0.31853098 -0.04353054 0.1381804 -0.21573976
000100 ff ee 07 3d ba 75 78 3e 84 d8 8a 3d f5 b2 54 be
       0.03318691 0.24263659 0.06779578 -0.20771392
000110 7e 27 96 bc f9 18 40 be 8e 25 2d be 03 e6 a6 be
       -0.018329378 -0.18759526 -0.16908857 -0.3259736
000120 8c 6b 94 bd 81 69 bf be 37 5c 05 bf 82 3c 85 bd
       -0.072470754 -0.3738518 -0.52093834 -0.065056816
000130 95 e8 83 be 0c 3b 14 3d bf e9 24 3c 3e 88 b6 3e
       -0.25763384 0.036189124 0.010065495 0.3565082
000140 5b 86 d6 3d 95 f5 a6 3e 7c d8 11 be 50 d8 90 3d
       0.10474845 0.3260924 -0.14242738 0.07072508
000150 48 ab 0f bd f3 83 14 be 99 af 11 3e 7e 0c 17 3d
       -0.035075456 -0.1450346 0.14227141 0.036877148
000160 25 9b 04 3e 8b b2 ca 3d f4 d0 16 3e db 58 19 bc
       0.12949808 0.098973356 0.14728147 -0.009359564
000170 a9 74 04 3e a0 35 05 3d 8d 1e dc be e3 4d 04 3e
       0.12935127 0.032521844 -0.42992058 0.12920336
000180 04 f7 32 be 84 ff 6e be 7b 89 0b be 51 ef 6c be
       -0.17477041 -0.23339659 -0.13626663 -0.23138167
000190 af ed 1d be 74 36 14 3f 88 bc a5 bc 9b c3 bc 3e
       -0.154227 0.5789559 -0.0202315 0.36867985
0001a0 17 c5 d1 bd 17 cf fb 3d 8a f7 84 bd 76 f5 81 be
       -0.1024267 0.12295359 -0.06492527 -0.25382584
0001b0 1d aa 8e 3d 13 25 d0 bb 63 f2 6f 3e 4c 3e 3c ba
       0.0696604 -0.006352076 0.23432307 -0.0007180914
0001c0 16 0f 04 3d 38 46 1b be e9 5e 49 bc 01 99 53 3e
       0.03224095 -0.15163505 -0.012290695 0.20663835
0001d0 5d 78 a1 3e c4 d0 2e bd 4f f2 c1 3d de 0a 49 3b
       0.31537142 -0.042679563 0.09470045 0.0030676643
0001e0 e0 23 88 be 78 38 32 be 7b 33 9a 3e 4e 4f b3 3d
       -0.2658987 -0.17404354 0.301174 0.087553605
0001f0 05 d2 a8 3d 68 e3 1e be 01 3f 98 3d 35 d3 35 b9
       0.08243183 -0.15516436 0.07433892 -0.00017340186
000200 c1 f2 54 bc 99 06 6e 3e 1f f6 0a 3e 5a 37 51 be
       -0.01299733 0.23244704 0.1357045 -0.20431271
000210 7f 3d 65 be ba b3 8f be 04 fd 68 be 75 32 7c 3e
       -0.2238674 -0.28066808 -0.22752768 0.24628623
000220 90 38 55 3e 62 0e 04 3e 3e 8f 32 be 75 f2 10 be
       0.20822358 0.12896112 -0.17437455 -0.1415499
000230 bf 01 f1 be a1 82 2a be 55 30 b8 bd 73 f1 32 be
       -0.47071645 -0.16651393 -0.089935936 -0.17474918
000240 69 82 11 3e 22 b6 cf be 77 08 d9 be 91 00 ad 3e
       0.14209904 -0.40568644 -0.4238927 0.33789495
000250 8a d4 6a be 6a 69 db be 7e ff 19 3e 43 7b 64 3d
       -0.2293264 -0.42853862 0.15038869 0.055781614
000260 00 be 80 bd 8b be 2d 3e 28 14 82 3e e2 98 fe be
       -0.062862396 0.16967218 0.25406003 -0.49726015
000270 e0 56 6a 3f 14 1a 73 3c a5 9e b7 3e ef 16 f7 bc
       0.9153881 0.0148377605 0.35863224 -0.030162303
000280 79 5d c4 3d f4 e5 ae 3e 18 18 32 3e 04 de a0 3d
       0.09588141 0.34159815 0.17392004 0.07854846
000290 a0 85 a0 be e0 10 3e be 75 de 75 3e ba c0 c0 3d
       -0.31351948 -0.18561125 0.24010642 0.0941176
0002a0 b4 3d 60 be 29 18 94 3e 27 c3 06 3e 2d 1a e3 3d
       -0.21898538 0.28924683 0.13160382 0.11088977
0002b0 98 2e f2 bd e7 da 76 3e 0c 31 a9 3e a7 07 b8 3e
       -0.11825293 0.24106942 0.33045232 0.35943338
0002c0 ad 88 79 be c7 4a d5 be 30 47 23 bf ff 17 22 bd
       -0.24368544 -0.41658613 -0.637805 -0.039573666
0002d0 4d e1 c2 3e b7 90 e5 3d 26 dc a4 bd 59 b7 a3 3e
       0.38062516 0.11209243 -0.080498025 0.3197582
0002e0 c6 5f b4 3e 90 0e 9c be 65 42 04 3e 75 e9 18 bd
       0.3522932 -0.3047986 0.12915953 -0.037332017
0002f0 0a 6c 7e bf 7c f1 87 be d7 75 92 3d e6 68 15 be
       -0.99383605 -0.26551425 0.071513824 -0.14590797
000300 aa 32 4e 3e 82 22 20 bf 34 f4 7f bd 29 55 9f bc
       0.20136514 -0.62552655 -0.06248875 -0.019449787
000310 dd c2 03 3f 4d 71 0f be 90 47 a3 3e 83 57 0d bf
       0.5146921 -0.14008065 0.31890535 -0.5521166
000320 ad a2 31 3c 95 0e 24 bd 89 d6 c5 3e 9d 56 91 be
       0.010842008 -0.04005297 0.3864024 -0.28386393
000330 a0 c6 da 3e b4 2b a2 3e 21 87 7f bd 5d c3 1b 3d
       0.42729664 0.31673968 -0.06238473 0.03802811
000340 a6 18 9e 3e 43 ac 54 be 53 7d a3 3e 94 d7 1d 3e
       0.3087818 -0.20768838 0.31931552 0.15414268
000350 b9 64 64 be ff 04 ca be 48 13 d1 bd 2a 74 79 3e
       -0.22304048 -0.39456937 -0.10208756 0.2436072
000360 4a a5 4f 3e af d9 bd 3e 6f 1c 15 3e 89 b9 c3 be
       0.20277897 0.37080142 0.14561628 -0.3822749
000370 da 3b c4 be ef f0 7d bd 38 eb dc 3e a6 03 03 be
       -0.38326913 -0.06199735 0.43148208 -0.1279436
000380 e9 93 26 3e eb 4a ac bd ce 33 53 be ac e7 9d bd
       0.16267361 -0.08412727 -0.2062523 -0.077102035
000390 73 17 0b 3f 76 14 2c bf 90 27 51 ba b7 60 6a 3c
       0.54332656 -0.6721872 -0.00079786126 0.014305285
0003a0 3c 15 41 be ad 69 a1 be 54 ca 2e 3f 15 95 a3 be
       -0.18855757 -0.31525937 0.6827748 -0.31949678
0003b0 db 75 95 3f 61 7f df 3e f8 49 65 3e 76 03 38 be
       1.1676592 0.4365187 0.22391498 -0.1797007
0003c0 50 9b 05 3e c7 23 57 be 6e ad 82 3e ef f4 31 3e
       0.13047528 -0.21009742 0.2552294 0.17378591
0003d0 b7 a5 a6 3e e1 f4 bc be 4f 75 8c bd 21 df b6 3d
       0.32548305 -0.36905578 -0.06858312 0.08929277
0003e0 6a 3d 43 3e 14 30 22 3d 74 83 00 be 77 98 00 bf
       0.19066396 0.039596632 -0.12550145 -0.5023264
0003f0 b4 ca 4c 3d 5d f0 0d bd 49 4c 19 bd a7 4e 6e be
       0.049998 -0.034653056 -0.037426267 -0.23272191

bias_ih_l0 f4 [512]
000000 aa f0 c4 3c 50 b9 fb bd 5c f9 bf bd e6 f0 88 3c
       0.024040539 -0.12291205 -0.093737334 0.016716432
000010 79 ea e3 bc f4 c8 cc bc 81 82 3c bd 4d b4 c4 3c
       -0.027821766 -0.024998166 -0.046022896 0.024011755
000020 d4 1d 07 3d 66 df 74 be a4 18 46 3e a9 02 b6 be
       0.03298743 -0.23913345 0.19345337 -0.35548905
000030 fe 5e 83 be 88 33 cf bd f1 bf 4e be 0e 42 77 bd
       -0.2565841 -0.10117251 -0.20190407 -0.06036573
000040 70 4e 47 bd f6 83 3d bd 87 57 6e 3d 3e 1c b7 3d
       -0.04865879 -0.046268426 0.05818894 0.08940934
000050 07 8c 1b 3d a6 ba 3a be 7d 49 af bd c9 db 30 3c
       0.037975337 -0.18235263 -0.08558939 0.010794588
000060 78 12 75 bb 8f 28 b6 bd 7b 5f 00 be 0a ad b1 bd
       -0.0037395041 -0.08894455 -0.12536423 -0.08675583
000070 ad ec 8a bd f2 6e 87 be 56 8b 3b 3e a0 b6 38 bd
       -0.067834236 -0.26451832 0.18314871 -0.04509604
000080 eb 15 66 3d 44 f0 a5 3d c5 4b fc 3d 3b 0a 85 bd
       0.056173246 0.08102468 0.123191394 -0.06496092
000090 8f 95 c2 3d db f9 fe bc ba 17 38 3e 77 f1 13 be
       0.09501182 -0.031125 0.17977801 -0.1444758
0000a0 f6 1f 6d be 7f 9a 06 3c 09 9b 42 3d f0 a6 ad 3d
       -0.23156723 0.008215546 0.047511134 0.084791064
0000b0 b3 8e 89 3c f9 13 9d bd 3e 54 ec bd dd f4 99 bd
       0.016791677 -0.07669825 -0.115395054 -0.07517407
0000c0 f6 83 c6 bd eb 69 d7 bc 71 df f4 3d b3 56 97 3d
       -0.09693138 -0.026295623 0.119566806 0.073895834
0000d0 19 54 57 3e 5b 4e a3 3d bd 3c 21 be 70 88 49 bd
       0.21028174 0.079739295 -0.15745826 -0.049202383
0000e0 5f 54 8d be f7 65 cb 3d 69 41 29 be 37 ea 3f 3d
       -0.27603433 0.099315576 -0.16528858 0.046854224
0000f0 bd 80 ff 3d 77 0e b3 bc 09 90 e8 bd 41 fc 39 3e
       0.12475727 -0.021857483 -0.113555975 0.18162633
000100 f0 29 e7 3c ae ea 0e bd 49 6a 17 bc 4a 9d cd bd
       0.02821824 -0.034891777 -0.009241649 -0.10039766
000110 e2 f0 92 3c 49 e8 a4 3d e2 70 c9 bd 01 dd cb bd
       0.017937128 0.080521174 -0.09835984 -0.099542625
000120 72 79 ae bd 7f 64 d7 be 49 4b 9d 3d a4 d0 56 bd
       -0.085192576 -0.4206886 0.07680375 -0.05244507
000130 98 c7 d8 bd 3d c1 20 3d 20 45 8e 3c b8 fa 37 be
       -0.105849445 0.039246786 0.017366946 -0.17966735
000140 fc c5 33 bd 15 9d bb bb 78 8b 4d bd b0 2b c6 3d
       -0.043889984 -0.0057255127 -0.050181836 0.096763015
000150 6e 4d 2d bd ac 22 b2 bc 50 cb 87 bd a3 e8 9b 3d
       -0.04231017 -0.021745048 -0.06630576 0.07612731
000160 dd 00 28 be 14 d2 54 bb 70 b7 e4 bd 27 09 11 be
       -0.1640658 -0.003247385 -0.111678004 -0.14163648
000170 d6 67 b3 3d f4 1c 33 be 4a 10 9d bd d0 4b 8a 3d
       0.087600395 -0.17491513 -0.076691225 0.06752741
000180 1e b2 07 3e 7e df 52 be 13 b5 c6 3d e2 60 0c be
       0.1325154 -0.20593068 0.09702506 -0.13708833
000190 ef 3b 9d 3e df ec 6c 3d ec 36 3b bd 5b f8 3c 3e
       0.30709788 0.057843085 -0.045706674 0.18454115
0001a0 c0 5c d3 3d 50 5e 99 3e 8e 01 fc bc 8a 9f be bd
       0.10320425 0.29954767 -0.03076246 -0.093077734
0001b0 7c ea 81 3d 02 c7 fd 3d f3 32 22 be 94 8c 11 3d
       0.063435525 0.12391473 -0.15839748 0.035534456
0001c0 1b 56 2a be b3 98 48 be 7b 53 97 bd e0 15 e9 ba
       -0.16634409 -0.195895 -0.073889695 -0.0017783009
0001d0 e6 a1 46 be 07 7c 8e be d5 ea 32 3d 08 79 f2 3a
       -0.19397697 -0.27829 0.043680985 0.0018499205
0001e0 3c e3 57 be c6 73 17 3c db b7 f8 bc 81 c3 5f 3e
       -0.21082777 0.009243911 -0.030361107 0.21851923
0001f0 df 3e 81 bd da bd a1 bd e0 0b ac bd 9b b2 6d 3e
       -0.0631082 -0.078975394 -0.084007025 0.23212664
000200 31 8c 14 be a7 39 a4 3e bd 23 21 bd c1 6a 7b be
       -0.14506604 0.32075235 -0.039340723 -0.24552442
000210 7c f5 45 3c bb b9 93 bc 74 2b 02 3e fc 19 b1 bd
       0.012082454 -0.0180329 0.12711889 -0.08647534
000220 b6 49 67 3d 2e 26 06 3e 5f 80 dd 3d dc ca be 3e
       0.05646678 0.13100502 0.108155005 0.37264144
000230 0a 51 8d 3e 67 ec c5 bd 79 f5 47 3e c0 3d f0 bd
       0.2760089 -0.09664231 0.19527234 -0.11730528
000240 90 58 eb 3d 51 c0 d9 bd 70 22 2e be a0 33 a6 bc
       0.11491501 -0.106323846 -0.17005324 -0.020288289
000250 dc 02 e7 3d 00 e7 a9 bd d4 0d 81 bc 28 3f 9e bd
       0.11279842 -0.08296013 -0.015753664 -0.0772689
000260 2b 80 f6 bd 05 e0 10 be 27 9c 8c 3d 46 8c 94 bd
       -0.12036165 -0.14147957 0.06865721 -0.072533175
000270 52 5e 9d bd 35 38 56 bc fb ec e8 bd a1 fc 60 bd
       -0.07684006 -0.013074924 -0.113733254 -0.054928426
000280 6d b9 a3 3d 64 63 82 bd c7 4e 05 3e 97 a8 0c 3e
       0.079943515 -0.063666135 0.13018332 0.13736187
000290 9c e1 23 3e 01 4f 75 bd 18 6a 45 3c 00 82 49 bd
       0.16004032 -0.059889797 0.0120492205 -0.049196243
0002a0 1a 89 44 3e 19 87 01 3e a0 76 31 bd 35 bb 46 be
       0.19192925 0.12649192 -0.04332602 -0.19407351
0002b0 b3 23 6f bd 80 c7 16 bd 4f c1 85 3d 93 18 8a bd
       -0.058383655 -0.03681135 0.06531011 -0.067429684
0002c0 95 bc 10 3e db fb 32 bd 8b 81 21 3e 1d f6 03 3d
       0.14134438 -0.04369722 0.15772073 0.032217134
0002d0 f8 3e e2 3d 63 1a b2 3d b0 10 e4 bd 9b aa 74 3c
       0.110471666 0.08696439 -0.111359954 0.014933254
0002e0 78 be d2 3b 00 dd 99 3d e7 71 94 bd 76 2e 84 bd
       0.006431397 0.075128555 -0.07248288 -0.06454174
0002f0 2f 16 82 bd d0 f4 f3 3a bb 15 a5 bc e3 79 5f 3b
       -0.063518874 0.0018612389 -0.020151963 0.003409975
000300 3a d0 04 be d2 94 6d 3d d1 ad 79 bd ad ba e1 3c
       -0.12970057 0.058003254 -0.06095678 0.027554834
000310 26 e4 69 bd 98 e9 06 be 0f 79 18 be ad 8f fa 3d
       -0.057102345 -0.13175046 -0.1488993 0.12234435
000320 59 df 14 be 09 69 c8 3e ce 02 33 3d e0 45 37 bd
       -0.14538325 0.39142635 0.043703847 -0.044744372
000330 d9 42 2d 3d 01 ee 23 bd 51 e3 96 3d 4e b5 22 bd
       0.04230008 -0.0400219 0.07367576 -0.039723687
000340 9c 50 07 3e ae b7 cb 3d e9 60 21 3e 45 46 2d be
       0.13214344 0.099471435 0.15759625 -0.16921337
000350 b6 65 37 3c ab 42 86 bd 15 7b 7e be 6b 28 ad 3d
       0.011193683 -0.06555685 -0.2485164 0.08454975
000360 93 6c 27 3e 83 5b 8b 3d 63 78 be bd 57 ea d7 3d
       0.16350012 0.06804564 -0.09300306 0.10542744
000370 28 c1 e5 3c 2c fb 4a be b3 aa 18 3e f4 2d 2d bd
       0.028046206 -0.19822377 0.14908867 -0.042280152
000380 8d 64 fa 3b 3e 6d b9 bc f1 a7 5d 3e 6c 12 af bd
       0.007641381 -0.022635099 0.21646096 -0.085484356
000390 90 90 74 3d 9b 05 51 bd 98 f6 e0 bc 7b 41 99 bd
       0.059708178 -0.051030736 -0.027461335 -0.074831925
0003a0 ed 14 92 bd ac 8d 3c 3e 7d 70 6a 3e 84 ec 99 bd
       -0.071328975 0.18413419 0.22894473 -0.07515815
0003b0 2d db 92 3d 0a 36 58 bd 73 8c 24 bd 05 e8 0e 3e
       0.07170711 -0.05278591 -0.040173005 0.13955696
0003c0 ad 98 2e be 61 80 a6 3e cc 91 bb bc f6 be 8f bc
       -0.17050429 0.3251982 -0.02289667 -0.017547112
0003d0 9a 89 83 b8 26 96 28 be 2e 85 c9 bd c7 eb 7a bd
       -6.272197e-05 -0.16463527 -0.09839855 -0.06126001
0003e0 5d 11 98 bd d9 5b 8b 3d 50 17 96 bd ee 1c 3a 3e
       -0.07425187 0.06804628 -0.07328665 0.18175098
0003f0 4b 6c 59 be 28 36 4c be 3e 6b f0 3d d7 76 7f 3e
       -0.21232717 -0.19942534 0.11739205 0.24947678

bias_hh_l0 f4 [512]
000000 41 d3 d1 3c be b4 8d be 45 5c 48 bd c0 7e 0a be
       0.025613429 -0.27676958 -0.04891612 -0.13524914
000010 2b 71 5c 3c a0 ce 4f 3b 28 27 0e bd 65 b8 64 bd
       0.013454716 0.0031708851 -0.03470531 -0.055839915
000020 fa 01 96 3c ab 7b 19 be a2 c8 11 3e de a0 85 be
       0.01831149 -0.14988582 0.14236692 -0.26099294
000030 9e 84 45 be 18 67 c2 3b 31 31 8b be ed ce 53 bc
       -0.1928887 0.0059327 -0.27185968 -0.012927753
000040 de 5e 8d bc 0a 10 bc bd 03 f8 e3 3d 4b 8d b5 bc
       -0.01725715 -0.09182747 0.11131289 -0.0221621
000050 0e e0 4f bb 9d 0a 5b be 2c b4 2d be a2 35 db bc
       -0.003171924 -0.21390767 -0.16963261 -0.026758973
000060 85 d0 36 bd 2e 99 3f bc 51 c8 eb bd 2b 3a 08 bd
       -0.044632453 -0.011694236 -0.11512817 -0.0332586
000070 39 e7 23 3d 4c b4 41 be bd 53 d5 3d 74 a3 6a 3d
       0.040015433 -0.18916434 0.104163624 0.057284787
000080 ea 7d 34 bc 4c e6 a5 3c a5 a3 f9 3d 09 83 e8 3c
       -0.011016348 0.020251416 0.12189416 0.028382795
000090 da f1 23 3e ed c1 36 3d 20 69 02 3e 9a 92 41 be
       0.16010228 0.044618536 0.12735415 -0.1890358
0000a0 f3 23 cd bd d5 eb cf 3d 39 d1 a9 bd 90 b4 e3 3d
       -0.100166224 0.10152403 -0.08291859 0.11118424
0000b0 c0 5b 9c bd 4f d4 bd 3c 51 64 02 bc 14 0e 55 bd
       -0.076346874 0.023172526 -0.007958488 -0.05201538
0000c0 03 bf 82 bd b4 56 05 bd 15 f9 9c 3d c2 9d e5 3c
       -0.06384089 -0.03255339 0.07664696 0.028029326
0000d0 36 f8 33 3e 0a 48 99 bc 02 c1 42 be 10 f3 5a bd
       0.17575154 -0.018711109 -0.19018939 -0.05345446
0000e0 be b7 5f be 31 6b 22 3e 62 8f 1b be f8 d5 b2 3d
       -0.21847436 0.15861203 -0.15191415 0.087322176
0000f0 91 30 e8 3d ee d4 c5 bd de d7 bf bc e5 40 46 3e
       0.11337388 -0.09659754 -0.023418363 0.19360693
000100 86 a4 87 bd 7b 12 07 3d d5 f1 77 bd d3 42 ba bb
       -0.06623177 0.03297661 -0.060533363 -0.0056842356
000110 00 0d 48 bd 97 97 c5 3d 31 52 53 be e4 04 4a bd
       -0.048840523 0.09648054 -0.20636822 -0.04932107
000120 fd c4 ff bd fa 94 dd be 64 a4 15 3e 66 4e 64 3c
       -0.124887444 -0.43277723 0.14613491 0.013934707
000130 60 b6 bd bd fd 61 14 3d 77 51 1a 3c 7d f8 a2 bd
       -0.09263301 0.03622626 0.009418837 -0.07957552
000140 6c 6f 84 3d 2e 30 12 bd 9f 64 d6 bc 42 57 7e 3d
       0.064665645 -0.03569048 -0.026171027 0.062094934
000150 20 3e 6f bd a0 85 b3 bc b2 0c b0 bd b3 ec 4a 3d
       -0.058408856 -0.021914303 -0.085961714 0.04954214
000160 e3 b6 b8 bd f4 ce 85 3d e6 7f be 3b 52 eb ca bd
       -0.09019258 0.06533614 0.0058135865 -0.09908165
000170 94 6d 9a 3d e0 7b cc bd 83 0f 12 be 0f bf a1 3c
       0.075404316 -0.09984565 -0.1426373 0.019744424
000180 0f ed bb 3d 1e 76 35 be c2 14 b5 3d 99 0c 09 be
       0.09176075 -0.1772084 0.0884185 -0.13383712
000190 e5 30 1e 3e 0a 3d 06 3e d2 99 80 3c 86 4e 5c 3e
       0.1544834 0.13109222 0.015698347 0.2151433
0001a0 66 d2 23 ba a4 2e ab 3e 1b e1 6e 3b 7d f6 d3 bd
       -0.00062493084 0.3343402 0.0036450091 -0.10349748
0001b0 56 87 41 3e 4a f1 a8 3d 11 25 0a be 44 75 df 3d
       0.18899283 0.08249147 -0.13490702 0.109110385
0001c0 5d a3 67 bc 71 38 9a be d7 24 e2 bc 68 cc 52 3d
       -0.01413807 -0.30121186 -0.027605457 0.05146447
0001d0 12 a9 bb bd bb d3 20 be ea 21 fb 3d 1e d6 02 3d
       -0.09163107 -0.15705769 0.12262328 0.03194248
0001e0 41 1f a4 bd f5 9d c6 bc 6c 55 7b 3d fb 7f 45 3e
       -0.08013774 -0.024245242 0.06136076 0.19287102
0001f0 ba 1d 20 be 1d 2f c9 bd 1e 73 2d bd 21 b6 8a 3e
       -0.1563634 -0.09823439 -0.042346112 0.27092078
000200 d9 8a f4 bd f5 21 72 3e 5e 97 b5 3d b6 3d 2b be
       -0.119405456 0.23645766 0.088667616 -0.1672276
000210 65 26 8e 3d 70 7c 27 3d 00 30 22 bc 6e 42 02 be
       0.06940917 0.040890157 -0.009899139 -0.12720653
000220 de e0 f1 3d df 46 58 3e b7 19 3f 3e 94 85 ba 3e
       0.11810468 0.21120785 0.18662153 0.36430037
000230 ca 1c bd 3e 17 cf 1b be a3 c9 25 3e 2e b3 8e bd
       0.36936027 -0.15215717 0.161902 -0.069677696
000240 2a fe 81 bc 16 97 32 bd 6c 61 89 bc d7 47 e9 3d
       -0.015868265 -0.043601118 -0.016770087 0.113906555
000250 81 1c 03 3e 6e 2c f8 bd d3 42 ab bd 1e 58 3d bc
       0.12803842 -0.12117849 -0.08362355 -0.011556653
000260 df c8 f0 39 82 88 0f be 81 e3 48 3d e6 1e 22 3d
       0.00045926028 -0.14016917 0.04904509 0.03958025
000270 6e 27 81 bd e6 76 0a 3d 38 a9 29 bd 55 6a 02 be
       -0.06306349 0.033804797 -0.041421145 -0.12735875
000280 0e 3e f9 3d 42 45 38 be a0 09 fd 3d 43 a1 e6 3d
       0.12170039 -0.1799517 0.123553514 0.11261227
000290 a8 2b f2 3d 16 a5 53 bd 4f 17 c7 3d 9a 33 b0 39
       0.11824733 -0.05167111 0.09721243 0.00033607782
0002a0 8a c5 1e 3e 02 2c dd 3d 75 39 8b bd 0d d6 54 be
       0.15505043 0.107994094 -0.067980684 -0.20784779
0002b0 21 82 fb bd f4 ea 04 be ac 07 66 3d 2c e6 4a be
       -0.122806795 -0.12980253 0.05615966 -0.19814366
0002c0 8f 2b 1c 3e 19 9c 00 3d fe d9 34 3e da 8e ef 3c
       0.15250991 0.031398866 0.17661282 0.029242922
0002d0 2a dc 7a 3d e8 04 b2 3c 34 de 9a bb d3 9f 59 bd
       0.06124512 0.021730855 -0.0047261957 -0.053130936
0002e0 1a 3d 8b 3a 58 fc 0b 3e fb 8e 3d 3c 50 04 41 bd
       0.0010623068 0.1367048 0.011569734 -0.047123253
0002f0 4d 9b 0b bd 02 06 9f 3b 0d c6 58 3b 01 99 b7 3d
       -0.034083653 0.004853011 0.0033077032 0.0896473
000300 60 15 2c be 49 f8 85 3c e4 be fa 3b 64 05 03 3e
       -0.16805029 0.016353743 0.0076521505 0.12795025
000310 cc d4 12 3d 14 68 48 be dc 55 dc bd 42 65 27 3e
       0.03584747 -0.19570953 -0.10758564 0.1634722
000320 79 5e 96 bd fc 50 9f 3e b7 19 9a 3d 9b 0f df 3d
       -0.07342238 0.31116474 0.07524436 0.108916484
000330 3d 0a 55 3c 74 08 a8 3c aa e1 22 bd 89 50 ef bc
       0.013002929 0.020511843 -0.03976599 -0.029213207
000340 ff 90 b8 3c c6 be ea 3d 00 cd cc 3d c6 28 97 bd
       0.022530077 0.114621684 0.10000038 -0.07380824
000350 e9 a7 1e be 14 0b ff 3c 6a 25 74 be 01 3f d7 3c
       -0.1549374 0.031133212 -0.23842397 0.02627516
000360 a0 cf f2 3c 5e a4 cc 3d 33 6c 7a 3c 01 e1 bf 3d
       0.029640019 0.09992288 0.015284586 0.09369088
000370 d5 04 f5 bd 42 c3 82 bd fa 79 63 3d 0e 25 2d 3c
       -0.11963812 -0.06384899 0.055536248 0.010567917
000380 67 ad da 3d 33 6e 2d 3c c9 83 7a 3e 01 07 99 3c
       0.10677605 0.010585356 0.24464335 0.018680098
000390 e2 91 95 3d 94 99 09 be f1 3a 9c 3c 3c 26 e5 bd
       0.073032156 -0.13437492 0.019071074 -0.11188933
0003a0 ba e4 56 bd 43 7b 8b 3e 94 4c 51 3e 6b 29 32 bc
       -0.052464224 0.2724248 0.20439368 -0.010874133
0003b0 95 53 30 3e 32 a2 30 be 1f 0e e6 bd 1b ba 0a 3e
       0.17219384 -0.17249373 -0.11233162 0.13547556
0003c0 de e1 b8 bd 40 f5 d1 3e cf 55 30 bc 1a 59 55 3d
       -0.09027456 0.41007423 -0.010762646 0.052086927
0003d0 5c c6 c3 bd d8 08 86 bd 13 3b a6 bd 75 a6 b0 bd
       -0.095593184 -0.065446556 -0.08116736 -0.08625499
0003e0 55 85 76 bd 50 22 28 3d e1 19 81 3d 04 20 f9 3d
       -0.06018575 0.041048348 0.06303764 0.121643096
0003f0 40 a2 75 bd d2 76 37 be 6a 96 4b 3e 61 8b 38 3e
       -0.059969187 -0.1791642 0.19881597 0.18021919

weight_ih_l1 f4 [512, 128]
000000 6d d2 4c 3e cb c2 d3 be ed 75 10 be 8a 50 17 3e
       0.20002146 -0.41359553 -0.14107485 0.14776817
000010 69 48 5a be 6a 58 da be 27 b7 91 bd 7d d5 b5 3d
       -0.21316685 -0.4264558 -0.07115012 0.0887861
000020 8c 3c a8 3c 6f fd b3 be 82 8d 13 be 98 2e 28 bd
       0.020536683 -0.35154292 -0.1440945 -0.04106006
000030 a3 86 93 3e 66 d3 bc be d2 64 b8 bd 12 53 86 be
       0.28813657 -0.36880034 -0.09003605 -0.26235253
000040 c0 a3 e6 bb da 6b 82 be ea 92 7f 3d 2d 31 30 3e
       -0.0070385635 -0.2547291 0.062395968 0.17206259
000050 b7 40 9b be a6 b2 87 be 0f 4c 70 be cd c7 0a 3e
       -0.3032281 -0.26503485 -0.23466514 0.1355278
000060 2a 5f 8d 3e 03 cd 93 bd 56 09 ad 3e 9f ab 30 3d
       0.27611667 -0.07216837 0.33796185 0.04313242
000070 da 9c 53 3e f2 66 dd bd 8c 34 f7 bd 7a db 6e be
       0.20665303 -0.10810651 -0.120705694 -0.23325911
000080 c9 86 81 3c 11 69 a0 3e c3 09 0d be 43 69 89 3c
       0.01581134 0.3133016 -0.13773255 0.016773826
000090 26 df e3 bd e4 3c 9b be ab 8b c0 3d 70 11 82 be
       -0.111265466 -0.30319893 0.094016396 -0.2540393
0000a0 17 c9 73 be 79 29 c3 3e aa 91 9a be 32 d0 d0 ba
       -0.23807178 0.3811758 -0.30189258 -0.0015931188
0000b0 35 6d 11 3e 78 af cf 3e 5d 2c 48 3e 07 53 3a 3e
       0.14201815 0.4056356 0.19548173 0.18195735
0000c0 7c b8 bb bd c7 cf 87 be fb c3 1c be 66 e4 04 3f
       -0.09166047 -0.2652571 -0.15309136 0.5191101
0000d0 ac b2 ed 3d d3 4a 33 bd 44 9c d9 be c3 65 78 3d
       0.116063446 -0.04377253 -0.42502034 0.060643923
0000e0 6f d7 7d 3e 03 48 29 be d8 93 13 3e 86 5d 87 3e
       0.24789213 -0.16531377 0.14411867 0.2643854
0000f0 76 73 68 3e 80 67 09 be cb 4d 4a be df 68 66 be
       0.22700295 -0.13418388 -0.19756238 -0.22500943
000100 83 e4 e0 3c 59 a5 04 bf 1e c8 76 3d a7 01 65 3d
       0.027452713 -0.518148 0.06024944 0.05590978
000110 5b 3c 8e 3e c9 cc bc be b1 f8 6b bd a4 af c2 3d
       0.27780423 -0.3687499 -0.057610217 0.09506157
000120 c2 6d 0c be 17 82 be 3d 38 64 e5 bd c2 71 14 be
       -0.13713744 0.093021564 -0.11200756 -0.1449652
000130 83 25 35 bd 12 80 1c 3e 6c 34 56 be 3e 1e e9 3e
       -0.044225227 0.1528323 -0.20918435 0.45530885
000140 99 73 3d bb 26 61 9e bd 0c 01 61 3e 29 66 16 3f
       -0.0028908013 -0.07733373 0.21973056 0.58749634
000150 44 d2 9f 3d 48 01 98 be 2a 32 46 3d a5 ed cd 3e
       0.07803777 -0.29688478 0.048387684 0.4022037
000160 70 64 3c 3e ba 1c 7d 3e c4 6f 9e 3e c0 b0 41 be
       0.18397689 0.2471799 0.30944645 -0.18915081
000170 d2 0e 3b be c2 b9 a8 3d 51 ed 08 3e e9 b9 e7 3e
       -0.18267372 0.082385555 0.13371779 0.45259026
000180 46 ee ca 3e 95 79 fe 3c ff 87 07 be 6b 1d 94 bd
       0.39634913 0.031063834 -0.13235472 -0.072321735
000190 82 4b cb bd ad 6d aa be a1 59 4b 3e fc e2 06 3f
       -0.09926511 -0.332868 0.1985841 0.526901
0001a0 4b 76 87 bd 44 1c a5 bd ee b2 cf 3d 9b b7 76 be
       -0.066143595 -0.08062032 0.1014155 -0.24093477
0001b0 8c bf f9 3d 98 90 15 3e f9 6d 4c be 4d 95 40 bd
       0.12194738 0.1460594 -0.19963826 -0.047017384
0001c0 41 0e 70 3d c4 03 8b be f8 19 2c 3e 79 fc 13 3f
       0.058607344 -0.2715131 0.16806781 0.5780712
0001d0 68 2b 64 3e 83 6f bf bd a5 fa 88 3e 18 3c 7c 3e
       0.22282183 -0.09347441 0.26753727 0.24632299
0001e0 c5 f1 1f bd 54 c0 3b bd 93 2e 34 3d 6d 79 2e be
       -0.03904893 -0.045837715 0.04398973 -0.17038508
0001f0 1e 8d 1c bd c6 ca cc 3d d2 1e 33 be 2d 07 aa bd
       -0.038220517 0.099996135 -0.17492226 -0.0830215
000200 a1 79 44 3e 6b 32 91 bb 8c 8b da bd eb 91 2e bd
       0.19187023 -0.004431059 -0.10671148 -0.042619627
000210 ba 23 5e be 4c 22 2f be fd 23 a2 3c 2f 3c 38 3e
       -0.21693316 -0.17102927 0.019792551 0.17991708
000220 4c 05 cd 3e d8 90 a2 bd a6 c1 94 be d5 b0 3c be
       0.40043104 -0.07937783 -0.29053992 -0.18426831
000230 be 80 0f bd 41 5a 1b be 49 76 da 3d 47 68 2f bd
       -0.035034887 -0.15171148 0.10667092 -0.042824056
000240 e7 9e 42 3e 04 7f 1b be bb ef ac 3d 0b b3 a9 3e
       0.19005929 -0.15185171 0.084441625 0.3314441
000250 14 ae af be da 92 12 be 63 c7 6b 3e 39 69 80 bd
       -0.343125 -0.14313832 0.23025279 -0.0627007
000260 d4 86 e6 bd c4 63 17 3e be 68 b6 3d 6f 0e 22 3d
       -0.11256185 0.14784151 0.08906697 0.039564546
000270 4c b0 7d 3e 12 56 86 be ab 3a 8f bd 3e 78 c4 bd
       0.24774283 -0.2623754 -0.06993612 -0.09593247
000280 34 3c c9 3d 5a 3d ea 3d 6b 43 b8 3d 70 d9 48 3d
       0.09825936 0.11437483 0.08997234 0.04903549
000290 76 da 9b be 23 52 ae bd be 9d dd 3d 04 c6 3f be
       -0.3044011 -0.0851176 0.108211026 -0.1872788
0002a0 5f b0 a2 bd 14 9d 9b 3d 61 3a 26 be 71 09 3c 3d
       -0.07943796 0.0759832 -0.16233207 0.04590744
0002b0 06 41 92 bd c8 d6 24 3e fc 61 58 3e 78 bd 33 3e
       -0.071413085 0.16097558 0.21131128 0.17552745
0002c0 d3 12 d1 be d6 8e 1d 3d a9 cf a8 be 7e 9c 47 3e
       -0.40834674 0.038466297 -0.32970932 0.19493291
0002d0 d7 be a2 3e 63 6b 1e 3d 17 01 62 be 13 38 79 3e
       0.31786224 0.03867663 -0.22070728 0.24337797
0002e0 c1 13 03 3e dc 2b 92 be 45 b3 01 be 0e ff 82 bd
       0.12800504 -0.28549087 -0.12666042 -0.06396304
0002f0 38 5d 03 be 80 e9 a5 be 52 a9 98 bc dc 2d 6b be
       -0.12828529 -0.3240471 -0.018635426 -0.22966713
000300 56 13 b5 3e 86 af 94 bd 31 55 61 3d 3e 02 d8 be
       0.35366315 -0.07260041 0.055012885 -0.4218921
000310 8f 7e 92 3d e8 6d c1 bd ba dc f2 3d c1 3e 9f be
       0.071530454 -0.09444791 0.118585065 -0.31102565
000320 df b4 ba bc 1c cd 6a be 49 2a 4c 3e 46 7f cc bd
       -0.022791324 -0.22929806 0.19938006 -0.09985213
000330 09 0a 67 3c ab 03 bf 3d c2 47 58 be 37 85 47 3e
       0.014101514 0.093268715 -0.21121123 0.19484411
000340 05 54 30 3c ed 9f 83 bd 21 a6 ca 3d f5 93 24 3e
       0.010762219 -0.06426988 0.09894968 0.16072066
000350 1a 01 85 bc 3a 96 20 bd 20 a4 b9 be 64 56 d3 3c
       -0.016235877 -0.039205767 -0.3625803 0.02579803
000360 3f 58 ed bc 71 61 44 3e fe 63 fe 3d 75 66 52 be
       -0.028972743 0.19177796 0.12421416 -0.20546897
000370 44 3e d1 be 5a b3 26 be e4 9c 1a 3e 5f 00 9d 3e
       -0.40867817 -0.16279355 0.15098912 0.30664346
000380 b1 6f 75 3d c9 47 a2 3d a9 55 cd bd 1e d8 dc bc
       0.05992097 0.07923848 -0.10026104 -0.026958521
000390 bf b2 44 bc 12 f3 7e be a5 9a f1 bc 6d c1 0a 3f
       -0.012005507 -0.24897411 -0.029492686 0.54201394
0003a0 7d 2c 55 bd 43 aa a9 be 16 39 db 3d 8b de 97 bd
       -0.05204438 -0.33137712 0.10704248 -0.074154936
0003b0 ca 57 d1 3e 5b 0d 77 3c 36 df 26 3e 33 bc 88 be
       0.4088729 0.015078868 0.16296086 -0.26706085
0003c0 32 1c 3b 3e 16 37 8c be 54 4e 30 3e 49 c7 aa 3e
       0.18272474 -0.27385777 0.1721738 0.33355168
0003d0 05 0e 09 3e cc eb e3 bc dd a6 5d 3e 3d 9b ae 3e
       0.13384254 -0.027822398 0.21645685 0.34102812
0003e0 1d b5 4e 3e b9 ac fd bd 95 a2 f3 bd 27 a0 fc be
       0.20186277 -0.1238646 -0.118962444 -0.49340937
0003f0 44 96 3b 37 5d e7 d1 bc a3 cb fa 3d fa 21 be be
       1.1181055e-05 -0.025623018 0.12245872 -0.37135297

weight_hh_l1 f4 [512, 128]
000000 d6 32 2e 3d 9e e7 50 3e 04 f5 9b 3e a1 3a 75 bd
       0.04252895 0.20400855 0.3046037 -0.059870366
000010 4a e3 05 be c8 69 7c bd ae 0d 3a be bd 64 85 be
       -0.13074985 -0.06162432 -0.18169281 -0.2605342
000020 10 5b d4 bd 31 d5 e4 3d f0 25 cf bd d9 a2 3c be
       -0.10368931 0.111734755 -0.10114658 -0.18421496
000030 3d 6e 0a 3e 9b 5d 04 3e 4d 98 50 3d a9 10 f6 3b
       0.13518615 0.12926333 0.050926495 0.0075093103
000040 15 f3 d7 bd 12 b0 0d bc ca a7 a0 bd a5 24 0f 3e
       -0.10544411 -0.008647935 -0.07844503 0.13978823
000050 40 1d 31 3e 0a f8 53 bd fc 4f bb 3d 07 28 7c 3c
       0.17296314 -0.05175022 0.09146115 0.015390403
000060 a9 5e 21 be c3 ec 17 be e5 a5 f6 3d 0c 84 19 3e
       -0.15758766 -0.14836411 0.120433606 0.14991778
000070 73 4e 1d 3d a7 c5 93 be 9f e6 83 bb f7 5f ff be
       0.038404893 -0.28861734 -0.004025295 -0.49877903
000080 0d f9 ca 3d 0d 41 29 3d 24 86 48 be 81 66 49 be
       0.09910784 0.041321803 -0.1958242 -0.19668008
000090 f0 c3 ab bd fd 49 25 3e 9d ab d3 bc db 8b 3e 3e
       -0.083869815 0.16141506 -0.025838668 0.18608038
0000a0 2d 68 ee 3d 73 86 92 bd 53 a2 57 be 96 b3 28 bd
       0.11640964 -0.071545504 -0.21058016 -0.04118689
0000b0 7e a9 b6 bd 5c 93 f4 3d 56 52 64 be 1c a4 78 be
       -0.08919047 0.11942169 -0.22297034 -0.24281353
0000c0 e8 e7 41 be 7d ee fe 3d fe 9e 94 bd cd 6d eb 3c
       -0.18936121 0.12447832 -0.07256888 0.02873888
0000d0 13 a2 1d bd 99 7f 66 3d 0b b3 7f 3e cc c7 d5 3d
       -0.038484644 0.05627403 0.24970643 0.10438499
0000e0 35 fc 95 3d 65 61 17 3e 0d 46 55 3d 97 c7 96 bd
       0.07323495 0.14783247 0.05206876 -0.073622875
0000f0 7b c5 49 3d b2 ca 9e 3d 7d 84 e5 bd f1 3a 3c be
       0.049260598 0.07753505 -0.11206911 -0.1838186
000100 3f 7f ee 3d 87 27 99 3d 54 29 06 3e c1 cb 5b bb
       0.11645364 0.07478242 0.13101703 -0.0033538195
000110 f6 35 ec 3a b6 cd aa bc 4e 95 67 bd e8 f5 6c be
       0.0018021453 -0.020850044 -0.056538872 -0.23140681
000120 44 6b 3e be 64 06 e6 bd 3c ea 0b 3e 22 1c f9 3d
       -0.18595606 -0.11231688 0.13663572 0.12163569
000130 34 7e e6 bd 41 73 b6 3e 0e 06 bc 3c 5f 62 e8 bd
       -0.1125454 0.35634807 0.022952106 -0.11346888
000140 4d ba ba 3e f3 fa 2f 3d 9a fe 67 be 4f da ac 3c
       0.3647026 0.042963933 -0.22655717 0.021100191
000150 22 a2 07 bd a8 08 c9 bd 5c 57 8a be 11 b8 a3 3d
       -0.033113606 -0.09816104 -0.27019775 0.07994092
000160 8d 39 95 3e a1 8d 12 3e 99 3b 68 bc 93 e1 1a 3e
       0.2914547 0.1431184 -0.014174365 0.15125112
000170 2e 74 1a be e2 a0 12 3e 83 e7 a4 3d d0 08 55 be
       -0.15083382 0.14319184 0.0805197 -0.20804143
000180 3f 0f df bd 2c a3 67 3d 56 29 02 3e e3 d2 c8 bd
       -0.1089158 0.056552097 0.12711081 -0.098058484
000190 d1 41 5b bc 16 fb 8c 3e 2a 5e a9 bd 16 13 50 3e
       -0.013382391 0.27535313 -0.082699135 0.2031978
0001a0 98 5b 04 be 2c e7 62 3e 52 00 cf be 50 82 a1 bd
       -0.12925565 0.22158498 -0.40429932 -0.07886183
0001b0 af 14 22 3e 53 58 8a 3e 06 ce 47 be 5b 4d 9d 3e
       0.15828203 0.2702051 -0.19512185 0.3072308
0001c0 e6 f8 21 be d9 db 14 3e 6d 19 70 3e fb 9b dd bd
       -0.15817603 0.1453699 0.23447199 -0.108207665
0001d0 ea 06 8a bd 4c dd 92 bd 65 67 9d 3e 59 1d 00 bf
       -0.067396 -0.07171115 0.30742946 -0.5004478
0001e0 0d 68 3e 3d 78 e9 f4 3d b3 e8 ea bd 03 33 3b bd
       0.04648595 0.11958593 -0.11470165 -0.045702945
0001f0 ea c6 f3 bd 24 84 e8 3d 8c 90 83 bd 56 79 5f bd
       -0.11903174 0.11353329 -0.064240545 -0.054559074
000200 29 5d d9 bc f5 ca 90 bd 2b 7b 01 3e 6e 84 f1 bd
       -0.02653368 -0.07069961 0.12644641 -0.11792837
000210 dc 49 75 3e b3 cf 9f 3c 62 88 53 3d 58 62 0b 3e
       0.23953956 0.019508218 0.051643737 0.13611734
000220 27 a4 e4 3d 2e c6 9f bd 0d e6 99 3c db 43 a8 bd
       0.11164122 -0.07801472 0.018786455 -0.082160674
000230 bd e5 8c bd b7 8e a8 39 6d d6 c9 3d 0d 9e 2a 3e
       -0.068797566 0.00032149788 0.098553516 0.16661854
000240 4a 46 8f 3c 8b e0 51 3d 3b 8a 11 be 93 96 b1 3e
       0.017489571 0.05123953 -0.14212887 0.34685192
000250 04 12 4b be d3 44 08 be 86 18 ed bd 04 d1 3d 3d
       -0.19831091 -0.13307504 -0.11576943 0.04634191
000260 ff 40 46 3e b5 43 08 be 61 42 d1 3d 69 b7 14 3e
       0.19360732 -0.13307078 0.10217739 0.1452309
000270 5f 10 e7 3d 4c 0a 18 bb 9a 93 10 be 4d 22 77 bd
       0.112824194 -0.0023199497 -0.14118806 -0.060335446
000280 48 7d c5 3b 1d 83 8e 3d c0 3e d9 bb fc c8 1e 3e
       0.0060268976 0.069586016 -0.006629795 0.15506357
000290 dc 18 38 3d b1 a3 5f bc 78 51 e0 3c 69 ed 0c be
       0.044945583 -0.013649867 0.027382597 -0.1376244
0002a0 1f e8 cd 3c 3c 80 e1 bd d0 9a 0c bd 8c 40 26 3c
       0.025135098 -0.11010787 -0.03432733 0.010147225
0002b0 63 09 b5 3d 04 df 0b be 10 5c cf 3d fe a2 1a 3c
       0.08839681 -0.13659292 0.101249814 0.009438274
0002c0 44 82 12 3d ac 4f 88 bd 71 19 9a 3c bc 70 0b 3e
       0.035768762 -0.06655821 0.01881096 0.13617224
0002d0 fa 07 0c be 46 8d 00 be ee 99 e3 bc 55 95 9e 3e
       -0.13674918 -0.12553892 -0.02778336 0.30973306
0002e0 8c f1 00 be df 8e bc bd 42 56 95 bd 16 0d 78 bd
       -0.12592143 -0.09206938 -0.07291843 -0.060559355
0002f0 2a ec 8c 3c 6a 39 24 bd c1 b4 b6 3d 4f 99 5c 3c
       0.017202456 -0.040093817 0.08921195 0.013464286
000300 1d de 76 be ba c4 05 be c7 70 d7 3d 77 25 fa 3c
       -0.24108167 -0.13063326 0.105195574 0.030535443
000310 3a f1 98 3d 0c 54 a5 3d 68 7e 78 3d f8 b6 f1 3d
       0.07467885 0.08072671 0.060667425 0.11802477
000320 e7 17 e2 3d cb 14 79 3e c8 16 03 39 3d e5 39 be
       0.11039715 0.24324338 0.0001250162 -0.18153854
000330 92 47 35 be eb fe 2b be 4a 4f 12 be a0 b0 91 3e
       -0.17703083 -0.16796462 -0.14288059 0.28455067
000340 82 88 dc 3e 93 c5 10 be 9b 10 c5 3d 68 1a 01 bd
       0.43072897 -0.14137869 0.09622308 -0.031519324
000350 b7 24 84 bd 99 51 11 be 88 d8 25 bc 1a 48 ce bd
       -0.06452315 -0.14191283 -0.010122426 -0.10072346
000360 1d bc 30 3e f7 7c 12 3e d3 94 74 be b6 78 f9 bd
       0.1725926 0.14305483 -0.23884897 -0.12181227
000370 fc ca 51 3e c5 03 65 bb fe 43 1f 3e 90 69 c9 3c
       0.20487589 -0.0034944874 0.1555328 0.024586469
000380 a1 55 93 3d 38 54 2e be b0 de 70 bd ad 0c f5 3c
       0.07194067 -0.17024314 -0.05880612 0.02991327
000390 df 9a a0 3d be a8 57 3d 8b fc 53 bb 05 92 80 3b
       0.07842039 0.05265116 -0.0032346572 0.003923657
0003a0 56 6e 15 bd dd bd cb bd 5b ff b9 3d 0e a2 81 3d
       -0.036482178 -0.09948323 0.09081908 0.063297376
0003b0 a1 45 d7 bc 2c eb 94 3d 6c 7b 3b be e4 59 cf bd
       -0.026278319 0.07271418 -0.183088 -0.10124567
0003c0 8f f4 1c bd 05 cd 8d bd 3d aa fe bd 29 b5 29 3e
       -0.038319167 -0.0692387 -0.12434814 0.16573013
0003d0 a2 b3 1e 3e a4 40 05 3d 7e eb 4a bd 7a 20 04 3e
       0.15498212 0.03253235 -0.04954099 0.12903014
0003e0 fd 65 ab bc 45 cb 00 bd ab 7f 90 3d 9d 95 80 bd
       -0.020922655 -0.031443853 0.07055601 -0.062785365
0003f0 c0 8d 0c 3b 93 31 8e bc 42 0d 90 3d f0 bd 30 3e
       0.0021446794 -0.017357623 0.07033779 0.17259955

bias_ih_l1 f4 [512]
000000 55 6e 66 be 37 72 06 be 6d ff 54 3d d4 67 3c be
       -0.22503026 -0.13129507 0.052001406 -0.18398982
000010 4e b3 d6 bd 86 2c 14 be a5 de 06 be 27 73 de bd
       -0.104834184 -0.1447011 -0.1317087 -0.10861807
000020 32 b1 52 bd 69 78 76 bd df 91 11 be 59 fd 1d be
       -0.051438518 -0.060173426 -0.14215802 -0.15428676
000030 c4 28 58 bd 8a f7 e5 bd 20 6a 24 bd f6 71 05 bd
       -0.052773252 -0.11228855 -0.04014027 -0.032579385
000040 00 5f 34 bc 52 23 0a be c5 94 23 be 25 f3 28 be
       -0.011008978 -0.13490036 -0.1597472 -0.16499002
000050 15 b7 13 be 58 9b 82 bd 1f c8 a7 bc 6b cc 13 3d
       -0.14425309 -0.06377286 -0.020481167 0.03608362
000060 ca d2 0d 3c 7b 90 34 be 53 8e da bd 87 8b 8b be
       0.008656213 -0.1763324 -0.106716774 -0.27254888
000070 b3 93 1b be 9f bd f5 bd ab 0c 3c be 4e ec c1 3d
       -0.15193062 -0.11999058 -0.18364207 0.094689
000080 87 02 ec bd bb f1 31 be fe ec 0e be 3a 98 d9 bd
       -0.115239196 -0.17377369 -0.13957593 -0.10624738
000090 cd 59 e5 bd b6 17 ae bd 88 3d 7c be 4f 69 11 bd
       -0.11198769 -0.08500616 -0.24632847 -0.03550082
0000a0 a2 56 1c be fb e1 02 be 13 1a 9a bd 81 93 96 bb
       -0.15267423 -0.12781517 -0.075245045 -0.0045952206
0000b0 c6 58 81 bd f3 28 3d 3c 9a ed 2c bd bb c6 16 be
       -0.0631576 0.011545408 -0.042218782 -0.14724247
0000c0 77 40 4c bd 44 67 d0 bd 7d 60 b0 bc 24 66 51 be
       -0.049866166 -0.10175946 -0.021530384 -0.2044912
0000d0 1e 35 ab bd a1 e6 0e be 8b 8f 22 3b 0e e9 ab bd
       -0.08359741 -0.13955165 0.0024804797 -0.08394061
0000e0 c7 b1 1c 3d c8 b2 3c be b5 f7 9d be 85 a2 23 be
       0.03825548 -0.18427575 -0.30853048 -0.15979965
0000f0 22 3e 33 be fc 32 86 bd 8d 8f 97 bd 81 b9 a8 bd
       -0.1750417 -0.06552693 -0.07400427 -0.08238507
000100 22 07 47 be 93 2b c2 bd d5 5a df bd 94 09 5a be
       -0.19436315 -0.094809674 -0.10905997 -0.21292716
000110 fb 38 34 be 4b a1 e8 bd e3 9c ab bd 5e 71 28 bd
       -0.17599861 -0.11358889 -0.08379533 -0.04112374
000120 69 2a 22 bd 6b 1a 28 be 24 b6 26 be 55 0a 89 bd
       -0.039591227 -0.16416328 -0.16280419 -0.06691424
000130 b8 33 88 be da bf 33 bd 3b fd 44 bd 4d 31 34 be
       -0.26601958 -0.043884136 -0.048093062 -0.17596932
000140 5d 95 a2 3c fc d4 53 bd 62 1f 03 be 64 bb a8 bd
       0.019846613 -0.05171679 -0.1280494 -0.08238867
000150 7a 33 0a be 19 c8 44 be be 7d 77 be 34 8d 67 bd
       -0.13496199 -0.19216956 -0.2416906 -0.056531146
000160 cc b1 0d be 52 72 89 bd 71 01 47 bc f4 b7 28 be
       -0.13837355 -0.06711258 -0.01214634 -0.16476423
000170 e0 e5 32 bd 5a 38 f3 bd e7 b9 93 bc 21 7e 17 3d
       -0.043676257 -0.118759826 -0.018032981 0.03698552
000180 85 5a 8c bd 1e a5 17 bc 7e db f1 bd e6 22 70 be
       -0.06853203 -0.009255676 -0.11809443 -0.23450813
000190 05 ab 58 3c 15 e7 24 be ed 6a 34 be 6d b1 30 bd
       0.013224368 -0.16103776 -0.17618914 -0.043137956
0001a0 89 85 0b bd 75 2c 55 bd dc 22 cb 3b c5 31 72 bd
       -0.034062896 -0.05204435 0.006199224 -0.059129495
0001b0 74 51 05 be d8 c4 bb bd 36 86 84 bd b2 37 50 3c
       -0.13019353 -0.09168404 -0.06470911 0.012708591
0001c0 0d 8e 3e be ab 47 8f be c7 ce 80 3d 97 9d 82 3e
       -0.18608876 -0.27984366 0.0628944 0.25510857
0001d0 1e 5d e0 3b 8c e0 b6 bd c7 ee 44 be 7e a2 03 be
       0.006847038 -0.08929548 -0.19231711 -0.12854955
0001e0 2a 4a 78 bd 34 77 0f be 46 fd 5b be 64 69 2f be
       -0.060617603 -0.14010316 -0.21483335 -0.17130047
0001f0 fa f5 c5 bd 30 7e 65 bd 16 13 40 bc b0 94 cf bc
       -0.09666057 -0.056028545 -0.0117233 -0.025339454
000200 c3 33 e5 bd 22 d5 b9 3c fe 9b 63 3e 5b 81 47 3b
       -0.111915134 0.022684637 0.22227475 0.0030442092
000210 d5 0b 72 bd 23 4f 54 3d f0 ab 7a 3e 43 f5 ca bd
       -0.059093315 0.051833283 0.24479651 -0.09910061
000220 2a a0 00 bc d7 02 fe bd 2e db d3 3c 46 7c 9a 3e
       -0.007850686 -0.124028854 0.025861349 0.30172938
000230 dc b1 4f 3d 3f 93 fe 3d f2 fd dc bd b5 e7 8c bb
       0.05070673 0.12430429 -0.10790624 -0.0043000826
000240 f7 61 04 3d 4e 9e 87 3d 4d 89 81 bc 09 42 a6 3e
       0.03231999 0.06621991 -0.01581254 0.32472256
000250 9a 52 da bd 56 35 5c be db a0 a6 3d 10 a9 28 3e
       -0.10660286 -0.21504721 0.081361495 0.16470742
000260 a0 83 1b 3b 92 82 b4 bd e5 32 bf 3d ef ae c1 bd
       0.0023729578 -0.08813967 0.09335879 -0.09457194
000270 51 64 71 bd 19 c2 de 3c 91 7e 01 3d f8 8c d9 bd
       -0.05893356 0.027192162 0.031614844 -0.10622591
000280 ff b3 5a be d3 c0 4b be a4 d6 08 bd 74 bd 04 bc
       -0.21357726 -0.19897775 -0.033407822 -0.00810181
000290 02 ab b5 3c 88 34 9e bc 2d 3f 91 3d d2 cf 59 bb
       0.02217627 -0.019312158 0.07092128 -0.0033235443
0002a0 76 93 83 bc 0a 1c 23 be db d0 31 3d bd ea 4e be
       -0.016061526 -0.15928665 0.04341207 -0.20206733
0002b0 a8 9d d9 bd b0 d1 d6 3a 57 1c ee bd c2 c2 6a bd
       -0.10625774 0.0016389396 -0.11626499 -0.05731464
0002c0 17 bf df 3d 51 c8 ae 3d ed a4 3d 3d 40 87 59 bd
       0.10925119 0.08534301 0.046299864 -0.0531075
0002d0 d8 3f 46 3d d1 4d e1 bc 71 7e 08 bc 73 bc b1 bd
       0.04840073 -0.027502926 -0.008330927 -0.08678522
0002e0 63 5f a2 3d 0a d2 8f 3d 1d e4 55 bd 3e f4 34 bd
       0.0792835 0.07022484 -0.0522195 -0.04417824
0002f0 49 e3 e2 bd 04 e7 41 3e c3 1c 81 3e fb 87 c0 3d
       -0.110785075 0.18935782 0.25217256 0.09400936
000300 c4 2f 48 3e 5a 23 be bd 67 3d d7 bd d2 39 89 bd
       0.19549471 -0.092840865 -0.105097584 -0.067004815
000310 f0 bf 30 be 69 f5 4c bd ee f6 9e 3d 47 9d 56 bd
       -0.17260718 -0.05003873 0.07761942 -0.052396085
000320 31 f4 d1 bc b6 0c c8 3d ae d0 7a 3e 42 86 a8 bd
       -0.025629135 0.097680494 0.24493667 -0.08228733
000330 a3 14 c2 bd 68 af b6 3d d7 81 0f be 89 e3 8f bd
       -0.094765924 0.08920175 -0.14014374 -0.07025821
000340 7c 29 04 3d 56 b0 10 3d 1c 74 95 3d e4 09 d3 bd
       0.032266125 0.035324417 0.07297537 -0.10304621
000350 92 7b 28 bd 6d f3 13 be 52 c6 a3 3e b7 5f ea bd
       -0.04113347 -0.14448328 0.31987244 -0.114440374
000360 02 54 cc bd 79 0d 8e 3d cd d7 27 3e 5e 2d 40 3e
       -0.09976961 0.069361635 0.16390915 0.18767306
000370 8b 60 e1 bd 4d 27 62 3e 1d 4e e8 bc 39 dc 9e 3c
       -0.11004742 0.22085305 -0.02835756 0.01939212
000380 61 ea 26 3c 6f 8e 8e 3e 38 11 e1 3d 14 0d 8f 3e
       0.010187716 0.27843043 0.10989612 0.27939665
000390 70 10 02 be e1 62 23 bb 2d 3e c8 bd 17 1f 8d 3d
       -0.12701583 -0.0024930763 -0.09777484 0.068906955
0003a0 cf a6 39 be 8a 3d c2 3b 72 79 46 bd 39 a5 1b be
       -0.18130039 0.005927746 -0.048455663 -0.15199746
0003b0 e6 51 c6 bd c7 fb f3 bb 4d cb ba bd 79 a5 9e bd
       -0.0968359 -0.0074457857 -0.09120808 -0.07746405
0003c0 a9 c2 89 3d 6a 7b f0 bc 9c 7e 8a bb d3 56 ff 3d
       0.067265816 -0.029355723 -0.004226519 0.12467732
0003d0 69 d4 8e 3c 21 86 bf bc 5f e3 8a 3b 1c 83 9a 3c
       0.01743527 -0.023379387 0.0042385305 0.018861346
0003e0 70 fd aa bd 9b 6f 13 bc 79 ca 49 bd cb 03 0d be
       -0.083491206 -0.008998777 -0.04926536 -0.13770978
0003f0 44 f7 61 bd 06 50 82 bd c8 cd 11 3e 3c 14 da bd
       -0.05516745 -0.063629195 0.14238656 -0.10648391
